…
size= (3, 3), activation=lrelu))\n","\n","model.add(Flatten())\n","model.add(Dense(512))\n","model.add(Dense(1024))\n","model.add(Dropout(0.5))\n","model.add(Dense(1470, activation='sigmoid'))\n","model.add(Yolo_Reshape(target_shape=(7,7,30)))\n","model.summary()"],"execution_count":null,"outputs":[{"output_type":"stream","text":["Model: \"sequential_3\"\n","_________________________________________________________________\n","Layer (type)                 Output Shape              Param #   \n","=================================================================\n","conv2d_72 (Conv2D)           (None, 448, 448, 64)      9472      \n","_________________________________________________________________\n","max_pooling2d_12 (MaxPooling (None, 224, 224, 64)      0         \n","_________________________________________________________________\n","conv2d_73 (Conv2D)           (None, 224, 224, 192)     110784    \n","_________________________________________________________________\n","max_pooling2d_13 (MaxPooling (None, 112, 112, 192)     0         \n","_________________________________________________________________\n","conv2d_74 (Conv2D)           (None, 112, 112, 128)     24704     \n","_________________________________________________________________\n","conv2d_75 (Conv2D)           (None, 112, 112, 256)     295168    \n","_________________________________________________________________\n","conv2d_76 (Conv2D)           (None, 112, 112, 256)     65792     \n","_________________________________________________________________\n","conv2d_77 (Conv2D)           (None, 112, 112, 512)     1180160   \n","_________________________________________________________________\n","max_pooling2d_14 (MaxPooling (None, 56, 56, 512)       0         \n","_________________________________________________________________\n","conv2d_78 (Conv2D)           (None, 56, 56, 256)       131328    \n","_________________________________________________________________\n","conv2d_79 (Conv2D)           (None, 56, 56, 512)       1180160   \n","_________________________________________________________________\n","conv2d_80 (Conv2D)           (None, 56, 56, 256)       131328    \n","_________________________________________________________________\n","conv2d_81 (Conv2D)           (None, 56, 56, 512)       1180160   \n","_________________________________________________________________\n","conv2d_82 (Conv2D)           (None, 56, 56, 256)       131328    \n","_________________________________________________________________\n","conv2d_83 (Conv2D)           (None, 56, 56, 512)       1180160   \n","_________________________________________________________________\n","conv2d_84 (Conv2D)           (None, 56, 56, 256)       131328    \n","_________________________________________________________________\n","conv2d_85 (Conv2D)           (None, 56, 56, 512)       1180160   \n","_________________________________________________________________\n","conv2d_86 (Conv2D)           (None, 56, 56, 512)       262656    \n","_________________________________________________________________\n","conv2d_87 (Conv2D)           (None, 56, 56, 1024)      4719616   \n","_________________________________________________________________\n","max_pooling2d_15 (MaxPooling (None, 28, 28, 1024)      0         \n","_________________________________________________________________\n","conv2d_88 (Conv2D)           (None, 28, 28, 512)       524800    \n","_________________________________________________________________\n","conv2d_89 (Conv2D)           (None, 28, 28, 1024)      4719616   \n","_________________________________________________________________\n","conv2d_90 (Conv2D)           (None, 28, 28, 512)       524800    \n","_________________________________________________________________\n","conv2d_91 (Conv2D)           (None, 28, 28, 1024)      4719616   \n","_________________________________________________________________\n","conv2d_92 (Conv2D)           (None, 28, 28, 1024)      9438208   \n","_________________________________________________________________\n","conv2d_93 (Conv2D)           (None, 14, 14, 1024)      9438208   \n","_________________________________________________________________\n","conv2d_94 (Conv2D)           (None, 12, 12, 1024)      9438208   \n","_________________________________________________________________\n","conv2d_95 (Conv2D)           (None, 10, 10, 1024)      9438208   \n","_________________________________________________________________\n","flatten_3 (Flatten)          (None, 102400)            0         \n","_________________________________________________________________\n","dense_9 (Dense)              (None, 512)               52429312  \n","_________________________________________________________________\n","dense_10 (Dense)             (None, 1024)              525312    \n","_________________________________________________________________\n","dropout_3 (Dropout)          (None, 1024)              0         \n","_________________________________________________________________\n","dense_11 (Dense)             (None, 1470)              1506750   \n","_________________________________________________________________\n","yolo__reshape_2 (Yolo_Reshap (None, 7, 7, 30)          0         \n","=================================================================\n","Total params: 114,617,342\n","Trainable params: 114,617,342\n","Non-trainable params: 0\n","_________________________________________________________________\n"],"name":"stdout"}]},{"cell_type":"markdown","metadata":{"id":"i9SGPNmS4qGu","colab_type":"text"},"source":["### Define a custom learning rate scheduler\n",
…
